{"backend": "tensorflow", "config": {"layers": [{"inbound_nodes": [], "config": {"dtype": "float32", "batch_input_shape": [null, 100, 100, 3], "sparse": false, "name": "input_1"}, "name": "input_1", "class_name": "InputLayer"}, {"inbound_nodes": [[["input_1", 0, 0, {}]]], "config": {"padding": [[0, 1], [0, 1]], "data_format": "channels_last", "trainable": true, "name": "conv1_pad"}, "name": "conv1_pad", "class_name": "ZeroPadding2D"}, {"inbound_nodes": [[["conv1_pad", 0, 0, {}]]], "config": {"kernel_regularizer": null, "padding": "valid", "kernel_size": [3, 3], "bias_constraint": null, "trainable": true, "kernel_constraint": null, "filters": 32, "bias_initializer": {"config": {}, "class_name": "Zeros"}, "activity_regularizer": null, "kernel_initializer": {"config": {"distribution": "uniform", "scale": 1.0, "mode": "fan_avg", "seed": null}, "class_name": "VarianceScaling"}, "use_bias": false, "dilation_rate": [1, 1], "name": "conv1", "bias_regularizer": null, "data_format": "channels_last", "strides": [2, 2], "activation": "linear"}, "name": "conv1", "class_name": "Conv2D"}, {"inbound_nodes": [[["conv1", 0, 0, {}]]], "config": {"beta_initializer": {"config": {}, "class_name": "Zeros"}, "beta_constraint": null, "moving_mean_initializer": {"config": {}, "class_name": "Zeros"}, "epsilon": 0.001, "gamma_initializer": {"config": {}, "class_name": "Ones"}, "axis": -1, "momentum": 0.99, "gamma_regularizer": null, "scale": true, "beta_regularizer": null, "trainable": true, "name": "conv1_bn", "moving_variance_initializer": {"config": {}, "class_name": "Ones"}, "gamma_constraint": null, "center": true}, "name": "conv1_bn", "class_name": "BatchNormalization"}, {"inbound_nodes": [[["conv1_bn", 0, 0, {}]]], "config": {"negative_slope": 0.0, "max_value": 6.0, "threshold": 0.0, "trainable": true, "name": "conv1_relu"}, "name": "conv1_relu", "class_name": "ReLU"}, {"inbound_nodes": [[["conv1_relu", 0, 0, {}]]], "config": {"padding": "same", "use_bias": false, "bias_constraint": null, "dilation_rate": [1, 1], "depthwise_regularizer": null, "bias_initializer": {"config": {}, "class_name": "Zeros"}, "depth_multiplier": 1, "activity_regularizer": null, "depthwise_initializer": {"config": {"distribution": "uniform", "scale": 1.0, "mode": "fan_avg", "seed": null}, "class_name": "VarianceScaling"}, "kernel_size": [3, 3], "trainable": true, "name": "conv_dw_1", "bias_regularizer": null, "data_format": "channels_last", "depthwise_constraint": null, "strides": [1, 1], "activation": "linear"}, "name": "conv_dw_1", "class_name": "DepthwiseConv2D"}, {"inbound_nodes": [[["conv_dw_1", 0, 0, {}]]], "config": {"beta_initializer": {"config": {}, "class_name": "Zeros"}, "beta_constraint": null, "moving_mean_initializer": {"config": {}, "class_name": "Zeros"}, "epsilon": 0.001, "gamma_initializer": {"config": {}, "class_name": "Ones"}, "axis": -1, "momentum": 0.99, "gamma_regularizer": null, "scale": true, "beta_regularizer": null, "trainable": true, "name": "conv_dw_1_bn", "moving_variance_initializer": {"config": {}, "class_name": "Ones"}, "gamma_constraint": null, "center": true}, "name": "conv_dw_1_bn", "class_name": "BatchNormalization"}, {"inbound_nodes": [[["conv_dw_1_bn", 0, 0, {}]]], "config": {"negative_slope": 0.0, "max_value": 6.0, "threshold": 0.0, "trainable": true, "name": "conv_dw_1_relu"}, "name": "conv_dw_1_relu", "class_name": "ReLU"}, {"inbound_nodes": [[["conv_dw_1_relu", 0, 0, {}]]], "config": {"kernel_regularizer": null, "padding": "same", "kernel_size": [1, 1], "bias_constraint": null, "trainable": true, "kernel_constraint": null, "filters": 64, "bias_initializer": {"config": {}, "class_name": "Zeros"}, "activity_regularizer": null, "kernel_initializer": {"config": {"distribution": "uniform", "scale": 1.0, "mode": "fan_avg", "seed": null}, "class_name": "VarianceScaling"}, "use_bias": false, "dilation_rate": [1, 1], "name": "conv_pw_1", "bias_regularizer": null, "data_format": "channels_last", "strides": [1, 1], "activation": "linear"}, "name": "conv_pw_1", "class_name": "Conv2D"}, {"inbound_nodes": [[["conv_pw_1", 0, 0, {}]]], "config": {"beta_initializer": {"config": {}, "class_name": "Zeros"}, "beta_constraint": null, "moving_mean_initializer": {"config": {}, "class_name": "Zeros"}, "epsilon": 0.001, "gamma_initializer": {"config": {}, "class_name": "Ones"}, "axis": -1, "momentum": 0.99, "gamma_regularizer": null, "scale": true, "beta_regularizer": null, "trainable": true, "name": "conv_pw_1_bn", "moving_variance_initializer": {"config": {}, "class_name": "Ones"}, "gamma_constraint": null, "center": true}, "name": "conv_pw_1_bn", "class_name": "BatchNormalization"}, {"inbound_nodes": [[["conv_pw_1_bn", 0, 0, {}]]], "config": {"negative_slope": 0.0, "max_value": 6.0, "threshold": 0.0, "trainable": true, "name": "conv_pw_1_relu"}, "name": "conv_pw_1_relu", "class_name": "ReLU"}, {"inbound_nodes": [[["conv_pw_1_relu", 0, 0, {}]]], "config": {"padding": [[0, 1], [0, 1]], "data_format": "channels_last", "trainable": true, "name": "conv_pad_2"}, "name": "conv_pad_2", "class_name": "ZeroPadding2D"}, {"inbound_nodes": [[["conv_pad_2", 0, 0, {}]]], "config": {"padding": "valid", "use_bias": false, "bias_constraint": null, "dilation_rate": [1, 1], "depthwise_regularizer": null, "bias_initializer": {"config": {}, "class_name": "Zeros"}, "depth_multiplier": 1, "activity_regularizer": null, "depthwise_initializer": {"config": {"distribution": "uniform", "scale": 1.0, "mode": "fan_avg", "seed": null}, "class_name": "VarianceScaling"}, "kernel_size": [3, 3], "trainable": true, "name": "conv_dw_2", "bias_regularizer": null, "data_format": "channels_last", "depthwise_constraint": null, "strides": [2, 2], "activation": "linear"}, "name": "conv_dw_2", "class_name": "DepthwiseConv2D"}, {"inbound_nodes": [[["conv_dw_2", 0, 0, {}]]], "config": {"beta_initializer": {"config": {}, "class_name": "Zeros"}, "beta_constraint": null, "moving_mean_initializer": {"config": {}, "class_name": "Zeros"}, "epsilon": 0.001, "gamma_initializer": {"config": {}, "class_name": "Ones"}, "axis": -1, "momentum": 0.99, "gamma_regularizer": null, "scale": true, "beta_regularizer": null, "trainable": true, "name": "conv_dw_2_bn", "moving_variance_initializer": {"config": {}, "class_name": "Ones"}, "gamma_constraint": null, "center": true}, "name": "conv_dw_2_bn", "class_name": "BatchNormalization"}, {"inbound_nodes": [[["conv_dw_2_bn", 0, 0, {}]]], "config": {"negative_slope": 0.0, "max_value": 6.0, "threshold": 0.0, "trainable": true, "name": "conv_dw_2_relu"}, "name": "conv_dw_2_relu", "class_name": "ReLU"}, {"inbound_nodes": [[["conv_dw_2_relu", 0, 0, {}]]], "config": {"kernel_regularizer": null, "padding": "same", "kernel_size": [1, 1], "bias_constraint": null, "trainable": true, "kernel_constraint": null, "filters": 128, "bias_initializer": {"config": {}, "class_name": "Zeros"}, "activity_regularizer": null, "kernel_initializer": {"config": {"distribution": "uniform", "scale": 1.0, "mode": "fan_avg", "seed": null}, "class_name": "VarianceScaling"}, "use_bias": false, "dilation_rate": [1, 1], "name": "conv_pw_2", "bias_regularizer": null, "data_format": "channels_last", "strides": [1, 1], "activation": "linear"}, "name": "conv_pw_2", "class_name": "Conv2D"}, {"inbound_nodes": [[["conv_pw_2", 0, 0, {}]]], "config": {"beta_initializer": {"config": {}, "class_name": "Zeros"}, "beta_constraint": null, "moving_mean_initializer": {"config": {}, "class_name": "Zeros"}, "epsilon": 0.001, "gamma_initializer": {"config": {}, "class_name": "Ones"}, "axis": -1, "momentum": 0.99, "gamma_regularizer": null, "scale": true, "beta_regularizer": null, "trainable": true, "name": "conv_pw_2_bn", "moving_variance_initializer": {"config": {}, "class_name": "Ones"}, "gamma_constraint": null, "center": true}, "name": "conv_pw_2_bn", "class_name": "BatchNormalization"}, {"inbound_nodes": [[["conv_pw_2_bn", 0, 0, {}]]], "config": {"negative_slope": 0.0, "max_value": 6.0, "threshold": 0.0, "trainable": true, "name": "conv_pw_2_relu"}, "name": "conv_pw_2_relu", "class_name": "ReLU"}, {"inbound_nodes": [[["conv_pw_2_relu", 0, 0, {}]]], "config": {"padding": "same", "use_bias": false, "bias_constraint": null, "dilation_rate": [1, 1], "depthwise_regularizer": null, "bias_initializer": {"config": {}, "class_name": "Zeros"}, "depth_multiplier": 1, "activity_regularizer": null, "depthwise_initializer": {"config": {"distribution": "uniform", "scale": 1.0, "mode": "fan_avg", "seed": null}, "class_name": "VarianceScaling"}, "kernel_size": [3, 3], "trainable": true, "name": "conv_dw_3", "bias_regularizer": null, "data_format": "channels_last", "depthwise_constraint": null, "strides": [1, 1], "activation": "linear"}, "name": "conv_dw_3", "class_name": "DepthwiseConv2D"}, {"inbound_nodes": [[["conv_dw_3", 0, 0, {}]]], "config": {"beta_initializer": {"config": {}, "class_name": "Zeros"}, "beta_constraint": null, "moving_mean_initializer": {"config": {}, "class_name": "Zeros"}, "epsilon": 0.001, "gamma_initializer": {"config": {}, "class_name": "Ones"}, "axis": -1, "momentum": 0.99, "gamma_regularizer": null, "scale": true, "beta_regularizer": null, "trainable": true, "name": "conv_dw_3_bn", "moving_variance_initializer": {"config": {}, "class_name": "Ones"}, "gamma_constraint": null, "center": true}, "name": "conv_dw_3_bn", "class_name": "BatchNormalization"}, {"inbound_nodes": [[["conv_dw_3_bn", 0, 0, {}]]], "config": {"negative_slope": 0.0, "max_value": 6.0, "threshold": 0.0, "trainable": true, "name": "conv_dw_3_relu"}, "name": "conv_dw_3_relu", "class_name": "ReLU"}, {"inbound_nodes": [[["conv_dw_3_relu", 0, 0, {}]]], "config": {"kernel_regularizer": null, "padding": "same", "kernel_size": [1, 1], "bias_constraint": null, "trainable": true, "kernel_constraint": null, "filters": 128, "bias_initializer": {"config": {}, "class_name": "Zeros"}, "activity_regularizer": null, "kernel_initializer": {"config": {"distribution": "uniform", "scale": 1.0, "mode": "fan_avg", "seed": null}, "class_name": "VarianceScaling"}, "use_bias": false, "dilation_rate": [1, 1], "name": "conv_pw_3", "bias_regularizer": null, "data_format": "channels_last", "strides": [1, 1], "activation": "linear"}, "name": "conv_pw_3", "class_name": "Conv2D"}, {"inbound_nodes": [[["conv_pw_3", 0, 0, {}]]], "config": {"beta_initializer": {"config": {}, "class_name": "Zeros"}, "beta_constraint": null, "moving_mean_initializer": {"config": {}, "class_name": "Zeros"}, "epsilon": 0.001, "gamma_initializer": {"config": {}, "class_name": "Ones"}, "axis": -1, "momentum": 0.99, "gamma_regularizer": null, "scale": true, "beta_regularizer": null, "trainable": true, "name": "conv_pw_3_bn", "moving_variance_initializer": {"config": {}, "class_name": "Ones"}, "gamma_constraint": null, "center": true}, "name": "conv_pw_3_bn", "class_name": "BatchNormalization"}, {"inbound_nodes": [[["conv_pw_3_bn", 0, 0, {}]]], "config": {"negative_slope": 0.0, "max_value": 6.0, "threshold": 0.0, "trainable": true, "name": "conv_pw_3_relu"}, "name": "conv_pw_3_relu", "class_name": "ReLU"}, {"inbound_nodes": [[["conv_pw_3_relu", 0, 0, {}]]], "config": {"padding": [[0, 1], [0, 1]], "data_format": "channels_last", "trainable": true, "name": "conv_pad_4"}, "name": "conv_pad_4", "class_name": "ZeroPadding2D"}, {"inbound_nodes": [[["conv_pad_4", 0, 0, {}]]], "config": {"padding": "valid", "use_bias": false, "bias_constraint": null, "dilation_rate": [1, 1], "depthwise_regularizer": null, "bias_initializer": {"config": {}, "class_name": "Zeros"}, "depth_multiplier": 1, "activity_regularizer": null, "depthwise_initializer": {"config": {"distribution": "uniform", "scale": 1.0, "mode": "fan_avg", "seed": null}, "class_name": "VarianceScaling"}, "kernel_size": [3, 3], "trainable": true, "name": "conv_dw_4", "bias_regularizer": null, "data_format": "channels_last", "depthwise_constraint": null, "strides": [2, 2], "activation": "linear"}, "name": "conv_dw_4", "class_name": "DepthwiseConv2D"}, {"inbound_nodes": [[["conv_dw_4", 0, 0, {}]]], "config": {"beta_initializer": {"config": {}, "class_name": "Zeros"}, "beta_constraint": null, "moving_mean_initializer": {"config": {}, "class_name": "Zeros"}, "epsilon": 0.001, "gamma_initializer": {"config": {}, "class_name": "Ones"}, "axis": -1, "momentum": 0.99, "gamma_regularizer": null, "scale": true, "beta_regularizer": null, "trainable": true, "name": "conv_dw_4_bn", "moving_variance_initializer": {"config": {}, "class_name": "Ones"}, "gamma_constraint": null, "center": true}, "name": "conv_dw_4_bn", "class_name": "BatchNormalization"}, {"inbound_nodes": [[["conv_dw_4_bn", 0, 0, {}]]], "config": {"negative_slope": 0.0, "max_value": 6.0, "threshold": 0.0, "trainable": true, "name": "conv_dw_4_relu"}, "name": "conv_dw_4_relu", "class_name": "ReLU"}, {"inbound_nodes": [[["conv_dw_4_relu", 0, 0, {}]]], "config": {"kernel_regularizer": null, "padding": "same", "kernel_size": [1, 1], "bias_constraint": null, "trainable": true, "kernel_constraint": null, "filters": 256, "bias_initializer": {"config": {}, "class_name": "Zeros"}, "activity_regularizer": null, "kernel_initializer": {"config": {"distribution": "uniform", "scale": 1.0, "mode": "fan_avg", "seed": null}, "class_name": "VarianceScaling"}, "use_bias": false, "dilation_rate": [1, 1], "name": "conv_pw_4", "bias_regularizer": null, "data_format": "channels_last", "strides": [1, 1], "activation": "linear"}, "name": "conv_pw_4", "class_name": "Conv2D"}, {"inbound_nodes": [[["conv_pw_4", 0, 0, {}]]], "config": {"beta_initializer": {"config": {}, "class_name": "Zeros"}, "beta_constraint": null, "moving_mean_initializer": {"config": {}, "class_name": "Zeros"}, "epsilon": 0.001, "gamma_initializer": {"config": {}, "class_name": "Ones"}, "axis": -1, "momentum": 0.99, "gamma_regularizer": null, "scale": true, "beta_regularizer": null, "trainable": true, "name": "conv_pw_4_bn", "moving_variance_initializer": {"config": {}, "class_name": "Ones"}, "gamma_constraint": null, "center": true}, "name": "conv_pw_4_bn", "class_name": "BatchNormalization"}, {"inbound_nodes": [[["conv_pw_4_bn", 0, 0, {}]]], "config": {"negative_slope": 0.0, "max_value": 6.0, "threshold": 0.0, "trainable": true, "name": "conv_pw_4_relu"}, "name": "conv_pw_4_relu", "class_name": "ReLU"}, {"inbound_nodes": [[["conv_pw_4_relu", 0, 0, {}]]], "config": {"padding": "same", "use_bias": false, "bias_constraint": null, "dilation_rate": [1, 1], "depthwise_regularizer": null, "bias_initializer": {"config": {}, "class_name": "Zeros"}, "depth_multiplier": 1, "activity_regularizer": null, "depthwise_initializer": {"config": {"distribution": "uniform", "scale": 1.0, "mode": "fan_avg", "seed": null}, "class_name": "VarianceScaling"}, "kernel_size": [3, 3], "trainable": true, "name": "conv_dw_5", "bias_regularizer": null, "data_format": "channels_last", "depthwise_constraint": null, "strides": [1, 1], "activation": "linear"}, "name": "conv_dw_5", "class_name": "DepthwiseConv2D"}, {"inbound_nodes": [[["conv_dw_5", 0, 0, {}]]], "config": {"beta_initializer": {"config": {}, "class_name": "Zeros"}, "beta_constraint": null, "moving_mean_initializer": {"config": {}, "class_name": "Zeros"}, "epsilon": 0.001, "gamma_initializer": {"config": {}, "class_name": "Ones"}, "axis": -1, "momentum": 0.99, "gamma_regularizer": null, "scale": true, "beta_regularizer": null, "trainable": true, "name": "conv_dw_5_bn", "moving_variance_initializer": {"config": {}, "class_name": "Ones"}, "gamma_constraint": null, "center": true}, "name": "conv_dw_5_bn", "class_name": "BatchNormalization"}, {"inbound_nodes": [[["conv_dw_5_bn", 0, 0, {}]]], "config": {"negative_slope": 0.0, "max_value": 6.0, "threshold": 0.0, "trainable": true, "name": "conv_dw_5_relu"}, "name": "conv_dw_5_relu", "class_name": "ReLU"}, {"inbound_nodes": [[["conv_dw_5_relu", 0, 0, {}]]], "config": {"kernel_regularizer": null, "padding": "same", "kernel_size": [1, 1], "bias_constraint": null, "trainable": true, "kernel_constraint": null, "filters": 256, "bias_initializer": {"config": {}, "class_name": "Zeros"}, "activity_regularizer": null, "kernel_initializer": {"config": {"distribution": "uniform", "scale": 1.0, "mode": "fan_avg", "seed": null}, "class_name": "VarianceScaling"}, "use_bias": false, "dilation_rate": [1, 1], "name": "conv_pw_5", "bias_regularizer": null, "data_format": "channels_last", "strides": [1, 1], "activation": "linear"}, "name": "conv_pw_5", "class_name": "Conv2D"}, {"inbound_nodes": [[["conv_pw_5", 0, 0, {}]]], "config": {"beta_initializer": {"config": {}, "class_name": "Zeros"}, "beta_constraint": null, "moving_mean_initializer": {"config": {}, "class_name": "Zeros"}, "epsilon": 0.001, "gamma_initializer": {"config": {}, "class_name": "Ones"}, "axis": -1, "momentum": 0.99, "gamma_regularizer": null, "scale": true, "beta_regularizer": null, "trainable": true, "name": "conv_pw_5_bn", "moving_variance_initializer": {"config": {}, "class_name": "Ones"}, "gamma_constraint": null, "center": true}, "name": "conv_pw_5_bn", "class_name": "BatchNormalization"}, {"inbound_nodes": [[["conv_pw_5_bn", 0, 0, {}]]], "config": {"negative_slope": 0.0, "max_value": 6.0, "threshold": 0.0, "trainable": true, "name": "conv_pw_5_relu"}, "name": "conv_pw_5_relu", "class_name": "ReLU"}, {"inbound_nodes": [[["conv_pw_5_relu", 0, 0, {}]]], "config": {"padding": [[0, 1], [0, 1]], "data_format": "channels_last", "trainable": true, "name": "conv_pad_6"}, "name": "conv_pad_6", "class_name": "ZeroPadding2D"}, {"inbound_nodes": [[["conv_pad_6", 0, 0, {}]]], "config": {"padding": "valid", "use_bias": false, "bias_constraint": null, "dilation_rate": [1, 1], "depthwise_regularizer": null, "bias_initializer": {"config": {}, "class_name": "Zeros"}, "depth_multiplier": 1, "activity_regularizer": null, "depthwise_initializer": {"config": {"distribution": "uniform", "scale": 1.0, "mode": "fan_avg", "seed": null}, "class_name": "VarianceScaling"}, "kernel_size": [3, 3], "trainable": true, "name": "conv_dw_6", "bias_regularizer": null, "data_format": "channels_last", "depthwise_constraint": null, "strides": [2, 2], "activation": "linear"}, "name": "conv_dw_6", "class_name": "DepthwiseConv2D"}, {"inbound_nodes": [[["conv_dw_6", 0, 0, {}]]], "config": {"beta_initializer": {"config": {}, "class_name": "Zeros"}, "beta_constraint": null, "moving_mean_initializer": {"config": {}, "class_name": "Zeros"}, "epsilon": 0.001, "gamma_initializer": {"config": {}, "class_name": "Ones"}, "axis": -1, "momentum": 0.99, "gamma_regularizer": null, "scale": true, "beta_regularizer": null, "trainable": true, "name": "conv_dw_6_bn", "moving_variance_initializer": {"config": {}, "class_name": "Ones"}, "gamma_constraint": null, "center": true}, "name": "conv_dw_6_bn", "class_name": "BatchNormalization"}, {"inbound_nodes": [[["conv_dw_6_bn", 0, 0, {}]]], "config": {"negative_slope": 0.0, "max_value": 6.0, "threshold": 0.0, "trainable": true, "name": "conv_dw_6_relu"}, "name": "conv_dw_6_relu", "class_name": "ReLU"}, {"inbound_nodes": [[["conv_dw_6_relu", 0, 0, {}]]], "config": {"kernel_regularizer": null, "padding": "same", "kernel_size": [1, 1], "bias_constraint": null, "trainable": true, "kernel_constraint": null, "filters": 512, "bias_initializer": {"config": {}, "class_name": "Zeros"}, "activity_regularizer": null, "kernel_initializer": {"config": {"distribution": "uniform", "scale": 1.0, "mode": "fan_avg", "seed": null}, "class_name": "VarianceScaling"}, "use_bias": false, "dilation_rate": [1, 1], "name": "conv_pw_6", "bias_regularizer": null, "data_format": "channels_last", "strides": [1, 1], "activation": "linear"}, "name": "conv_pw_6", "class_name": "Conv2D"}, {"inbound_nodes": [[["conv_pw_6", 0, 0, {}]]], "config": {"beta_initializer": {"config": {}, "class_name": "Zeros"}, "beta_constraint": null, "moving_mean_initializer": {"config": {}, "class_name": "Zeros"}, "epsilon": 0.001, "gamma_initializer": {"config": {}, "class_name": "Ones"}, "axis": -1, "momentum": 0.99, "gamma_regularizer": null, "scale": true, "beta_regularizer": null, "trainable": true, "name": "conv_pw_6_bn", "moving_variance_initializer": {"config": {}, "class_name": "Ones"}, "gamma_constraint": null, "center": true}, "name": "conv_pw_6_bn", "class_name": "BatchNormalization"}, {"inbound_nodes": [[["conv_pw_6_bn", 0, 0, {}]]], "config": {"negative_slope": 0.0, "max_value": 6.0, "threshold": 0.0, "trainable": true, "name": "conv_pw_6_relu"}, "name": "conv_pw_6_relu", "class_name": "ReLU"}, {"inbound_nodes": [[["conv_pw_6_relu", 0, 0, {}]]], "config": {"padding": "same", "use_bias": false, "bias_constraint": null, "dilation_rate": [1, 1], "depthwise_regularizer": null, "bias_initializer": {"config": {}, "class_name": "Zeros"}, "depth_multiplier": 1, "activity_regularizer": null, "depthwise_initializer": {"config": {"distribution": "uniform", "scale": 1.0, "mode": "fan_avg", "seed": null}, "class_name": "VarianceScaling"}, "kernel_size": [3, 3], "trainable": true, "name": "conv_dw_7", "bias_regularizer": null, "data_format": "channels_last", "depthwise_constraint": null, "strides": [1, 1], "activation": "linear"}, "name": "conv_dw_7", "class_name": "DepthwiseConv2D"}, {"inbound_nodes": [[["conv_dw_7", 0, 0, {}]]], "config": {"beta_initializer": {"config": {}, "class_name": "Zeros"}, "beta_constraint": null, "moving_mean_initializer": {"config": {}, "class_name": "Zeros"}, "epsilon": 0.001, "gamma_initializer": {"config": {}, "class_name": "Ones"}, "axis": -1, "momentum": 0.99, "gamma_regularizer": null, "scale": true, "beta_regularizer": null, "trainable": true, "name": "conv_dw_7_bn", "moving_variance_initializer": {"config": {}, "class_name": "Ones"}, "gamma_constraint": null, "center": true}, "name": "conv_dw_7_bn", "class_name": "BatchNormalization"}, {"inbound_nodes": [[["conv_dw_7_bn", 0, 0, {}]]], "config": {"negative_slope": 0.0, "max_value": 6.0, "threshold": 0.0, "trainable": true, "name": "conv_dw_7_relu"}, "name": "conv_dw_7_relu", "class_name": "ReLU"}, {"inbound_nodes": [[["conv_dw_7_relu", 0, 0, {}]]], "config": {"kernel_regularizer": null, "padding": "same", "kernel_size": [1, 1], "bias_constraint": null, "trainable": true, "kernel_constraint": null, "filters": 512, "bias_initializer": {"config": {}, "class_name": "Zeros"}, "activity_regularizer": null, "kernel_initializer": {"config": {"distribution": "uniform", "scale": 1.0, "mode": "fan_avg", "seed": null}, "class_name": "VarianceScaling"}, "use_bias": false, "dilation_rate": [1, 1], "name": "conv_pw_7", "bias_regularizer": null, "data_format": "channels_last", "strides": [1, 1], "activation": "linear"}, "name": "conv_pw_7", "class_name": "Conv2D"}, {"inbound_nodes": [[["conv_pw_7", 0, 0, {}]]], "config": {"beta_initializer": {"config": {}, "class_name": "Zeros"}, "beta_constraint": null, "moving_mean_initializer": {"config": {}, "class_name": "Zeros"}, "epsilon": 0.001, "gamma_initializer": {"config": {}, "class_name": "Ones"}, "axis": -1, "momentum": 0.99, "gamma_regularizer": null, "scale": true, "beta_regularizer": null, "trainable": true, "name": "conv_pw_7_bn", "moving_variance_initializer": {"config": {}, "class_name": "Ones"}, "gamma_constraint": null, "center": true}, "name": "conv_pw_7_bn", "class_name": "BatchNormalization"}, {"inbound_nodes": [[["conv_pw_7_bn", 0, 0, {}]]], "config": {"negative_slope": 0.0, "max_value": 6.0, "threshold": 0.0, "trainable": true, "name": "conv_pw_7_relu"}, "name": "conv_pw_7_relu", "class_name": "ReLU"}, {"inbound_nodes": [[["conv_pw_7_relu", 0, 0, {}]]], "config": {"padding": "same", "use_bias": false, "bias_constraint": null, "dilation_rate": [1, 1], "depthwise_regularizer": null, "bias_initializer": {"config": {}, "class_name": "Zeros"}, "depth_multiplier": 1, "activity_regularizer": null, "depthwise_initializer": {"config": {"distribution": "uniform", "scale": 1.0, "mode": "fan_avg", "seed": null}, "class_name": "VarianceScaling"}, "kernel_size": [3, 3], "trainable": true, "name": "conv_dw_8", "bias_regularizer": null, "data_format": "channels_last", "depthwise_constraint": null, "strides": [1, 1], "activation": "linear"}, "name": "conv_dw_8", "class_name": "DepthwiseConv2D"}, {"inbound_nodes": [[["conv_dw_8", 0, 0, {}]]], "config": {"beta_initializer": {"config": {}, "class_name": "Zeros"}, "beta_constraint": null, "moving_mean_initializer": {"config": {}, "class_name": "Zeros"}, "epsilon": 0.001, "gamma_initializer": {"config": {}, "class_name": "Ones"}, "axis": -1, "momentum": 0.99, "gamma_regularizer": null, "scale": true, "beta_regularizer": null, "trainable": true, "name": "conv_dw_8_bn", "moving_variance_initializer": {"config": {}, "class_name": "Ones"}, "gamma_constraint": null, "center": true}, "name": "conv_dw_8_bn", "class_name": "BatchNormalization"}, {"inbound_nodes": [[["conv_dw_8_bn", 0, 0, {}]]], "config": {"negative_slope": 0.0, "max_value": 6.0, "threshold": 0.0, "trainable": true, "name": "conv_dw_8_relu"}, "name": "conv_dw_8_relu", "class_name": "ReLU"}, {"inbound_nodes": [[["conv_dw_8_relu", 0, 0, {}]]], "config": {"kernel_regularizer": null, "padding": "same", "kernel_size": [1, 1], "bias_constraint": null, "trainable": true, "kernel_constraint": null, "filters": 512, "bias_initializer": {"config": {}, "class_name": "Zeros"}, "activity_regularizer": null, "kernel_initializer": {"config": {"distribution": "uniform", "scale": 1.0, "mode": "fan_avg", "seed": null}, "class_name": "VarianceScaling"}, "use_bias": false, "dilation_rate": [1, 1], "name": "conv_pw_8", "bias_regularizer": null, "data_format": "channels_last", "strides": [1, 1], "activation": "linear"}, "name": "conv_pw_8", "class_name": "Conv2D"}, {"inbound_nodes": [[["conv_pw_8", 0, 0, {}]]], "config": {"beta_initializer": {"config": {}, "class_name": "Zeros"}, "beta_constraint": null, "moving_mean_initializer": {"config": {}, "class_name": "Zeros"}, "epsilon": 0.001, "gamma_initializer": {"config": {}, "class_name": "Ones"}, "axis": -1, "momentum": 0.99, "gamma_regularizer": null, "scale": true, "beta_regularizer": null, "trainable": true, "name": "conv_pw_8_bn", "moving_variance_initializer": {"config": {}, "class_name": "Ones"}, "gamma_constraint": null, "center": true}, "name": "conv_pw_8_bn", "class_name": "BatchNormalization"}, {"inbound_nodes": [[["conv_pw_8_bn", 0, 0, {}]]], "config": {"negative_slope": 0.0, "max_value": 6.0, "threshold": 0.0, "trainable": true, "name": "conv_pw_8_relu"}, "name": "conv_pw_8_relu", "class_name": "ReLU"}, {"inbound_nodes": [[["conv_pw_8_relu", 0, 0, {}]]], "config": {"padding": "same", "use_bias": false, "bias_constraint": null, "dilation_rate": [1, 1], "depthwise_regularizer": null, "bias_initializer": {"config": {}, "class_name": "Zeros"}, "depth_multiplier": 1, "activity_regularizer": null, "depthwise_initializer": {"config": {"distribution": "uniform", "scale": 1.0, "mode": "fan_avg", "seed": null}, "class_name": "VarianceScaling"}, "kernel_size": [3, 3], "trainable": true, "name": "conv_dw_9", "bias_regularizer": null, "data_format": "channels_last", "depthwise_constraint": null, "strides": [1, 1], "activation": "linear"}, "name": "conv_dw_9", "class_name": "DepthwiseConv2D"}, {"inbound_nodes": [[["conv_dw_9", 0, 0, {}]]], "config": {"beta_initializer": {"config": {}, "class_name": "Zeros"}, "beta_constraint": null, "moving_mean_initializer": {"config": {}, "class_name": "Zeros"}, "epsilon": 0.001, "gamma_initializer": {"config": {}, "class_name": "Ones"}, "axis": -1, "momentum": 0.99, "gamma_regularizer": null, "scale": true, "beta_regularizer": null, "trainable": true, "name": "conv_dw_9_bn", "moving_variance_initializer": {"config": {}, "class_name": "Ones"}, "gamma_constraint": null, "center": true}, "name": "conv_dw_9_bn", "class_name": "BatchNormalization"}, {"inbound_nodes": [[["conv_dw_9_bn", 0, 0, {}]]], "config": {"negative_slope": 0.0, "max_value": 6.0, "threshold": 0.0, "trainable": true, "name": "conv_dw_9_relu"}, "name": "conv_dw_9_relu", "class_name": "ReLU"}, {"inbound_nodes": [[["conv_dw_9_relu", 0, 0, {}]]], "config": {"kernel_regularizer": null, "padding": "same", "kernel_size": [1, 1], "bias_constraint": null, "trainable": true, "kernel_constraint": null, "filters": 512, "bias_initializer": {"config": {}, "class_name": "Zeros"}, "activity_regularizer": null, "kernel_initializer": {"config": {"distribution": "uniform", "scale": 1.0, "mode": "fan_avg", "seed": null}, "class_name": "VarianceScaling"}, "use_bias": false, "dilation_rate": [1, 1], "name": "conv_pw_9", "bias_regularizer": null, "data_format": "channels_last", "strides": [1, 1], "activation": "linear"}, "name": "conv_pw_9", "class_name": "Conv2D"}, {"inbound_nodes": [[["conv_pw_9", 0, 0, {}]]], "config": {"beta_initializer": {"config": {}, "class_name": "Zeros"}, "beta_constraint": null, "moving_mean_initializer": {"config": {}, "class_name": "Zeros"}, "epsilon": 0.001, "gamma_initializer": {"config": {}, "class_name": "Ones"}, "axis": -1, "momentum": 0.99, "gamma_regularizer": null, "scale": true, "beta_regularizer": null, "trainable": true, "name": "conv_pw_9_bn", "moving_variance_initializer": {"config": {}, "class_name": "Ones"}, "gamma_constraint": null, "center": true}, "name": "conv_pw_9_bn", "class_name": "BatchNormalization"}, {"inbound_nodes": [[["conv_pw_9_bn", 0, 0, {}]]], "config": {"negative_slope": 0.0, "max_value": 6.0, "threshold": 0.0, "trainable": true, "name": "conv_pw_9_relu"}, "name": "conv_pw_9_relu", "class_name": "ReLU"}, {"inbound_nodes": [[["conv_pw_9_relu", 0, 0, {}]]], "config": {"padding": "same", "use_bias": false, "bias_constraint": null, "dilation_rate": [1, 1], "depthwise_regularizer": null, "bias_initializer": {"config": {}, "class_name": "Zeros"}, "depth_multiplier": 1, "activity_regularizer": null, "depthwise_initializer": {"config": {"distribution": "uniform", "scale": 1.0, "mode": "fan_avg", "seed": null}, "class_name": "VarianceScaling"}, "kernel_size": [3, 3], "trainable": true, "name": "conv_dw_10", "bias_regularizer": null, "data_format": "channels_last", "depthwise_constraint": null, "strides": [1, 1], "activation": "linear"}, "name": "conv_dw_10", "class_name": "DepthwiseConv2D"}, {"inbound_nodes": [[["conv_dw_10", 0, 0, {}]]], "config": {"beta_initializer": {"config": {}, "class_name": "Zeros"}, "beta_constraint": null, "moving_mean_initializer": {"config": {}, "class_name": "Zeros"}, "epsilon": 0.001, "gamma_initializer": {"config": {}, "class_name": "Ones"}, "axis": -1, "momentum": 0.99, "gamma_regularizer": null, "scale": true, "beta_regularizer": null, "trainable": true, "name": "conv_dw_10_bn", "moving_variance_initializer": {"config": {}, "class_name": "Ones"}, "gamma_constraint": null, "center": true}, "name": "conv_dw_10_bn", "class_name": "BatchNormalization"}, {"inbound_nodes": [[["conv_dw_10_bn", 0, 0, {}]]], "config": {"negative_slope": 0.0, "max_value": 6.0, "threshold": 0.0, "trainable": true, "name": "conv_dw_10_relu"}, "name": "conv_dw_10_relu", "class_name": "ReLU"}, {"inbound_nodes": [[["conv_dw_10_relu", 0, 0, {}]]], "config": {"kernel_regularizer": null, "padding": "same", "kernel_size": [1, 1], "bias_constraint": null, "trainable": true, "kernel_constraint": null, "filters": 512, "bias_initializer": {"config": {}, "class_name": "Zeros"}, "activity_regularizer": null, "kernel_initializer": {"config": {"distribution": "uniform", "scale": 1.0, "mode": "fan_avg", "seed": null}, "class_name": "VarianceScaling"}, "use_bias": false, "dilation_rate": [1, 1], "name": "conv_pw_10", "bias_regularizer": null, "data_format": "channels_last", "strides": [1, 1], "activation": "linear"}, "name": "conv_pw_10", "class_name": "Conv2D"}, {"inbound_nodes": [[["conv_pw_10", 0, 0, {}]]], "config": {"beta_initializer": {"config": {}, "class_name": "Zeros"}, "beta_constraint": null, "moving_mean_initializer": {"config": {}, "class_name": "Zeros"}, "epsilon": 0.001, "gamma_initializer": {"config": {}, "class_name": "Ones"}, "axis": -1, "momentum": 0.99, "gamma_regularizer": null, "scale": true, "beta_regularizer": null, "trainable": true, "name": "conv_pw_10_bn", "moving_variance_initializer": {"config": {}, "class_name": "Ones"}, "gamma_constraint": null, "center": true}, "name": "conv_pw_10_bn", "class_name": "BatchNormalization"}, {"inbound_nodes": [[["conv_pw_10_bn", 0, 0, {}]]], "config": {"negative_slope": 0.0, "max_value": 6.0, "threshold": 0.0, "trainable": true, "name": "conv_pw_10_relu"}, "name": "conv_pw_10_relu", "class_name": "ReLU"}, {"inbound_nodes": [[["conv_pw_10_relu", 0, 0, {}]]], "config": {"padding": "same", "use_bias": false, "bias_constraint": null, "dilation_rate": [1, 1], "depthwise_regularizer": null, "bias_initializer": {"config": {}, "class_name": "Zeros"}, "depth_multiplier": 1, "activity_regularizer": null, "depthwise_initializer": {"config": {"distribution": "uniform", "scale": 1.0, "mode": "fan_avg", "seed": null}, "class_name": "VarianceScaling"}, "kernel_size": [3, 3], "trainable": true, "name": "conv_dw_11", "bias_regularizer": null, "data_format": "channels_last", "depthwise_constraint": null, "strides": [1, 1], "activation": "linear"}, "name": "conv_dw_11", "class_name": "DepthwiseConv2D"}, {"inbound_nodes": [[["conv_dw_11", 0, 0, {}]]], "config": {"beta_initializer": {"config": {}, "class_name": "Zeros"}, "beta_constraint": null, "moving_mean_initializer": {"config": {}, "class_name": "Zeros"}, "epsilon": 0.001, "gamma_initializer": {"config": {}, "class_name": "Ones"}, "axis": -1, "momentum": 0.99, "gamma_regularizer": null, "scale": true, "beta_regularizer": null, "trainable": true, "name": "conv_dw_11_bn", "moving_variance_initializer": {"config": {}, "class_name": "Ones"}, "gamma_constraint": null, "center": true}, "name": "conv_dw_11_bn", "class_name": "BatchNormalization"}, {"inbound_nodes": [[["conv_dw_11_bn", 0, 0, {}]]], "config": {"negative_slope": 0.0, "max_value": 6.0, "threshold": 0.0, "trainable": true, "name": "conv_dw_11_relu"}, "name": "conv_dw_11_relu", "class_name": "ReLU"}, {"inbound_nodes": [[["conv_dw_11_relu", 0, 0, {}]]], "config": {"kernel_regularizer": null, "padding": "same", "kernel_size": [1, 1], "bias_constraint": null, "trainable": true, "kernel_constraint": null, "filters": 512, "bias_initializer": {"config": {}, "class_name": "Zeros"}, "activity_regularizer": null, "kernel_initializer": {"config": {"distribution": "uniform", "scale": 1.0, "mode": "fan_avg", "seed": null}, "class_name": "VarianceScaling"}, "use_bias": false, "dilation_rate": [1, 1], "name": "conv_pw_11", "bias_regularizer": null, "data_format": "channels_last", "strides": [1, 1], "activation": "linear"}, "name": "conv_pw_11", "class_name": "Conv2D"}, {"inbound_nodes": [[["conv_pw_11", 0, 0, {}]]], "config": {"beta_initializer": {"config": {}, "class_name": "Zeros"}, "beta_constraint": null, "moving_mean_initializer": {"config": {}, "class_name": "Zeros"}, "epsilon": 0.001, "gamma_initializer": {"config": {}, "class_name": "Ones"}, "axis": -1, "momentum": 0.99, "gamma_regularizer": null, "scale": true, "beta_regularizer": null, "trainable": true, "name": "conv_pw_11_bn", "moving_variance_initializer": {"config": {}, "class_name": "Ones"}, "gamma_constraint": null, "center": true}, "name": "conv_pw_11_bn", "class_name": "BatchNormalization"}, {"inbound_nodes": [[["conv_pw_11_bn", 0, 0, {}]]], "config": {"negative_slope": 0.0, "max_value": 6.0, "threshold": 0.0, "trainable": true, "name": "conv_pw_11_relu"}, "name": "conv_pw_11_relu", "class_name": "ReLU"}, {"inbound_nodes": [[["conv_pw_11_relu", 0, 0, {}]]], "config": {"padding": [[0, 1], [0, 1]], "data_format": "channels_last", "trainable": true, "name": "conv_pad_12"}, "name": "conv_pad_12", "class_name": "ZeroPadding2D"}, {"inbound_nodes": [[["conv_pad_12", 0, 0, {}]]], "config": {"padding": "valid", "use_bias": false, "bias_constraint": null, "dilation_rate": [1, 1], "depthwise_regularizer": null, "bias_initializer": {"config": {}, "class_name": "Zeros"}, "depth_multiplier": 1, "activity_regularizer": null, "depthwise_initializer": {"config": {"distribution": "uniform", "scale": 1.0, "mode": "fan_avg", "seed": null}, "class_name": "VarianceScaling"}, "kernel_size": [3, 3], "trainable": true, "name": "conv_dw_12", "bias_regularizer": null, "data_format": "channels_last", "depthwise_constraint": null, "strides": [2, 2], "activation": "linear"}, "name": "conv_dw_12", "class_name": "DepthwiseConv2D"}, {"inbound_nodes": [[["conv_dw_12", 0, 0, {}]]], "config": {"beta_initializer": {"config": {}, "class_name": "Zeros"}, "beta_constraint": null, "moving_mean_initializer": {"config": {}, "class_name": "Zeros"}, "epsilon": 0.001, "gamma_initializer": {"config": {}, "class_name": "Ones"}, "axis": -1, "momentum": 0.99, "gamma_regularizer": null, "scale": true, "beta_regularizer": null, "trainable": true, "name": "conv_dw_12_bn", "moving_variance_initializer": {"config": {}, "class_name": "Ones"}, "gamma_constraint": null, "center": true}, "name": "conv_dw_12_bn", "class_name": "BatchNormalization"}, {"inbound_nodes": [[["conv_dw_12_bn", 0, 0, {}]]], "config": {"negative_slope": 0.0, "max_value": 6.0, "threshold": 0.0, "trainable": true, "name": "conv_dw_12_relu"}, "name": "conv_dw_12_relu", "class_name": "ReLU"}, {"inbound_nodes": [[["conv_dw_12_relu", 0, 0, {}]]], "config": {"kernel_regularizer": null, "padding": "same", "kernel_size": [1, 1], "bias_constraint": null, "trainable": true, "kernel_constraint": null, "filters": 1024, "bias_initializer": {"config": {}, "class_name": "Zeros"}, "activity_regularizer": null, "kernel_initializer": {"config": {"distribution": "uniform", "scale": 1.0, "mode": "fan_avg", "seed": null}, "class_name": "VarianceScaling"}, "use_bias": false, "dilation_rate": [1, 1], "name": "conv_pw_12", "bias_regularizer": null, "data_format": "channels_last", "strides": [1, 1], "activation": "linear"}, "name": "conv_pw_12", "class_name": "Conv2D"}, {"inbound_nodes": [[["conv_pw_12", 0, 0, {}]]], "config": {"beta_initializer": {"config": {}, "class_name": "Zeros"}, "beta_constraint": null, "moving_mean_initializer": {"config": {}, "class_name": "Zeros"}, "epsilon": 0.001, "gamma_initializer": {"config": {}, "class_name": "Ones"}, "axis": -1, "momentum": 0.99, "gamma_regularizer": null, "scale": true, "beta_regularizer": null, "trainable": true, "name": "conv_pw_12_bn", "moving_variance_initializer": {"config": {}, "class_name": "Ones"}, "gamma_constraint": null, "center": true}, "name": "conv_pw_12_bn", "class_name": "BatchNormalization"}, {"inbound_nodes": [[["conv_pw_12_bn", 0, 0, {}]]], "config": {"negative_slope": 0.0, "max_value": 6.0, "threshold": 0.0, "trainable": true, "name": "conv_pw_12_relu"}, "name": "conv_pw_12_relu", "class_name": "ReLU"}, {"inbound_nodes": [[["conv_pw_12_relu", 0, 0, {}]]], "config": {"padding": "same", "use_bias": false, "bias_constraint": null, "dilation_rate": [1, 1], "depthwise_regularizer": null, "bias_initializer": {"config": {}, "class_name": "Zeros"}, "depth_multiplier": 1, "activity_regularizer": null, "depthwise_initializer": {"config": {"distribution": "uniform", "scale": 1.0, "mode": "fan_avg", "seed": null}, "class_name": "VarianceScaling"}, "kernel_size": [3, 3], "trainable": true, "name": "conv_dw_13", "bias_regularizer": null, "data_format": "channels_last", "depthwise_constraint": null, "strides": [1, 1], "activation": "linear"}, "name": "conv_dw_13", "class_name": "DepthwiseConv2D"}, {"inbound_nodes": [[["conv_dw_13", 0, 0, {}]]], "config": {"beta_initializer": {"config": {}, "class_name": "Zeros"}, "beta_constraint": null, "moving_mean_initializer": {"config": {}, "class_name": "Zeros"}, "epsilon": 0.001, "gamma_initializer": {"config": {}, "class_name": "Ones"}, "axis": -1, "momentum": 0.99, "gamma_regularizer": null, "scale": true, "beta_regularizer": null, "trainable": true, "name": "conv_dw_13_bn", "moving_variance_initializer": {"config": {}, "class_name": "Ones"}, "gamma_constraint": null, "center": true}, "name": "conv_dw_13_bn", "class_name": "BatchNormalization"}, {"inbound_nodes": [[["conv_dw_13_bn", 0, 0, {}]]], "config": {"negative_slope": 0.0, "max_value": 6.0, "threshold": 0.0, "trainable": true, "name": "conv_dw_13_relu"}, "name": "conv_dw_13_relu", "class_name": "ReLU"}, {"inbound_nodes": [[["conv_dw_13_relu", 0, 0, {}]]], "config": {"kernel_regularizer": null, "padding": "same", "kernel_size": [1, 1], "bias_constraint": null, "trainable": true, "kernel_constraint": null, "filters": 1024, "bias_initializer": {"config": {}, "class_name": "Zeros"}, "activity_regularizer": null, "kernel_initializer": {"config": {"distribution": "uniform", "scale": 1.0, "mode": "fan_avg", "seed": null}, "class_name": "VarianceScaling"}, "use_bias": false, "dilation_rate": [1, 1], "name": "conv_pw_13", "bias_regularizer": null, "data_format": "channels_last", "strides": [1, 1], "activation": "linear"}, "name": "conv_pw_13", "class_name": "Conv2D"}, {"inbound_nodes": [[["conv_pw_13", 0, 0, {}]]], "config": {"beta_initializer": {"config": {}, "class_name": "Zeros"}, "beta_constraint": null, "moving_mean_initializer": {"config": {}, "class_name": "Zeros"}, "epsilon": 0.001, "gamma_initializer": {"config": {}, "class_name": "Ones"}, "axis": -1, "momentum": 0.99, "gamma_regularizer": null, "scale": true, "beta_regularizer": null, "trainable": true, "name": "conv_pw_13_bn", "moving_variance_initializer": {"config": {}, "class_name": "Ones"}, "gamma_constraint": null, "center": true}, "name": "conv_pw_13_bn", "class_name": "BatchNormalization"}, {"inbound_nodes": [[["conv_pw_13_bn", 0, 0, {}]]], "config": {"negative_slope": 0.0, "max_value": 6.0, "threshold": 0.0, "trainable": true, "name": "conv_pw_13_relu"}, "name": "conv_pw_13_relu", "class_name": "ReLU"}, {"inbound_nodes": [[["conv_pw_13_relu", 0, 0, {}]]], "config": {"data_format": "channels_last", "trainable": true, "name": "global_average_pooling2d_1"}, "name": "global_average_pooling2d_1", "class_name": "GlobalAveragePooling2D"}, {"inbound_nodes": [[["global_average_pooling2d_1", 0, 0, {}]]], "config": {"target_shape": [1, 1, 1024], "trainable": true, "name": "reshape_1"}, "name": "reshape_1", "class_name": "Reshape"}, {"inbound_nodes": [[["reshape_1", 0, 0, {}]]], "config": {"seed": null, "name": "dropout", "rate": 0.001, "trainable": true, "noise_shape": null}, "name": "dropout", "class_name": "Dropout"}, {"inbound_nodes": [[["dropout", 0, 0, {}]]], "config": {"kernel_regularizer": null, "padding": "same", "kernel_size": [1, 1], "bias_constraint": null, "trainable": true, "kernel_constraint": null, "filters": 3095, "bias_initializer": {"config": {}, "class_name": "Zeros"}, "activity_regularizer": null, "kernel_initializer": {"config": {"distribution": "uniform", "scale": 1.0, "mode": "fan_avg", "seed": null}, "class_name": "VarianceScaling"}, "use_bias": true, "dilation_rate": [1, 1], "name": "conv_preds", "bias_regularizer": null, "data_format": "channels_last", "strides": [1, 1], "activation": "linear"}, "name": "conv_preds", "class_name": "Conv2D"}, {"inbound_nodes": [[["conv_preds", 0, 0, {}]]], "config": {"name": "act_softmax", "trainable": true, "activation": "softmax"}, "name": "act_softmax", "class_name": "Activation"}, {"inbound_nodes": [[["act_softmax", 0, 0, {}]]], "config": {"target_shape": [3095], "trainable": true, "name": "reshape_2"}, "name": "reshape_2", "class_name": "Reshape"}], "output_layers": [["reshape_2", 0, 0]], "input_layers": [["input_1", 0, 0]], "name": "mobilenet_1.00_100"}, "keras_version": "2.2.4", "class_name": "Model"}